…
Initializing EMA parameters to be source parameters...
Generator(
  (activation): ReLU()
  (shared): identity()
  (linear): SNLinear(in_features=128, out_features=4096, bias=True)
  (blocks): ModuleList(
    (0): ModuleList(
      (0): GBlock(
        (activation): ReLU()
        (conv1): SNConv2d(256, 256, kernel_size=(3, 3), stride=(1, 1), padding=(1, 1))
        (conv2): SNConv2d(256, 256, kernel_size=(3, 3), stride=(1, 1), padding=(1, 1))
        (conv_sc): SNConv2d(256, 256, kernel_size=(1, 1), stride=(1, 1))
        (bn1): ccbn(
          out: 256, in: 10, cross_replica=False
          (gain): Embedding(10, 256)
          (bias): Embedding(10, 256)
        )
        (bn2): ccbn(
          out: 256, in: 10, cross_replica=False
          (gain): Embedding(10, 256)
          (bias): Embedding(10, 256)
        )
      )
    )
    (1): ModuleList(
      (0): GBlock(
        (activation): ReLU()
        (conv1): SNConv2d(256, 256, kernel_size=(3, 3), stride=(1, 1), padding=(1, 1))
        (conv2): SNConv2d(256, 256, kernel_size=(3, 3), stride=(1, 1), padding=(1, 1))
        (conv_sc): SNConv2d(256, 256, kernel_size=(1, 1), stride=(1, 1))
        (bn1): ccbn(
          out: 256, in: 10, cross_replica=False
          (gain): Embedding(10, 256)
          (bias): Embedding(10, 256)
        )
        (bn2): ccbn(
          out: 256, in: 10, cross_replica=False
          (gain): Embedding(10, 256)
          (bias): Embedding(10, 256)
        )
      )
    )
    (2): ModuleList(
      (0): GBlock(
        (activation): ReLU()
        (conv1): SNConv2d(256, 256, kernel_size=(3, 3), stride=(1, 1), padding=(1, 1))
        (conv2): SNConv2d(256, 256, kernel_size=(3, 3), stride=(1, 1), padding=(1, 1))
        (conv_sc): SNConv2d(256, 256, kernel_size=(1, 1), stride=(1, 1))
        (bn1): ccbn(
          out: 256, in: 10, cross_replica=False
          (gain): Embedding(10, 256)
          (bias): Embedding(10, 256)
        )
        (bn2): ccbn(
          out: 256, in: 10, cross_replica=False
          (gain): Embedding(10, 256)
          (bias): Embedding(10, 256)
        )
      )
    )
  )
  (output_layer): Sequential(
    (0): bn()
    (1): ReLU()
    (2): SNConv2d(256, 3, kernel_size=(3, 3), stride=(1, 1), padding=(1, 1))
  )
)
Discriminator(
  (activation): ReLU()
  (blocks): ModuleList(
    (0): ModuleList(
      (0): DBlock(
        (activation): ReLU()
        (downsample): AvgPool2d(kernel_size=2, stride=2, padding=0)
        (conv1): SNConv2d(3, 256, kernel_size=(3, 3), stride=(1, 1), padding=(1, 1))
…
